…
mt[4mx[4mt[24m[24m [20D[32mp[32my[32mt[32mh[32mo[32mn[39m [4mk[4me[4mr[4ma[4ms[4m_[4mg[4mr[4ma[4mp[4mh[4m.[4mp[4my[24m [?1l>
Using TensorFlow backend.
keras_graph.py:171: UserWarning: Update your `Model` call to the Keras 2 API: `Model(outputs=Tensor("de..., inputs=Tensor("or...)`
  model = Model(input=model_input_32, output=output)
_________________________________________________________________
Layer (type)                 Output Shape              Param #   
=================================================================
orig_32 (InputLayer)         (None, 1024, 5)           0         
_________________________________________________________________
dense_1 (Dense)              (None, 1024, 1024)        6144      
_________________________________________________________________
dropout_1 (Dropout)          (None, 1024, 1024)        0         
_________________________________________________________________
dense_2 (Dense)              (None, 1024, 512)         524800    
_________________________________________________________________
dropout_2 (Dropout)          (None, 1024, 512)         0         
_________________________________________________________________
dense_3 (Dense)              (None, 1024, 128)         65664     
_________________________________________________________________
dropout_3 (Dropout)          (None, 1024, 128)         0         
_________________________________________________________________
flatten_1 (Flatten)          (None, 131072)            0         
_________________________________________________________________
dense_5 (Dense)              (None, 10)                1310730   
=================================================================
Total params: 1,907,338
Trainable params: 1,907,338
Non-trainable params: 0
_________________________________________________________________
Processing images: 

  0%|                                                      | 0/50000 [00:00<?, ?it/s]  0%|                                            | 11/50000 [00:00<07:47
…
